examples/pytorch_2_do-mpc/model_weights.pth (torch, 2368 bytes, 4 tensors)

0.weight f8 [10, 3]
0	0xc001afb0ec25bcbd	-2.2107866715446947
1	0x3fce3bda95e5a4fb	0.2362015945357497
2	0x3fcc645f43730715	0.22181311410354768
3	0xc005d8af798fa9eb	-2.7308034417121596
4	0x3f50fcc0bd27b972	0.001036823484010432
5	0xbfc1b220f60608b1	-0.138248558167168
6	0x40042eeb02341429	2.5229091808455633
7	0x3fd51d2b56dfe130	0.32990535243836216
8	0xbfd2172e69975b2d	-0.2826648741878895
9	0xbff0a99767a152cc	-1.041404156499243
10	0x3fdae1184d18d202	0.41998870400428256
11	0x3fe302c65af1ba6c	0.5940887237791919
12	0x4007449b293e0555	2.908499071316934
13	0xbfc691e0dee2f1bd	-0.17632685549859942
14	0xbfe36357fd59a615	-0.605876917671767
15	0x4001d9cff729db2c	2.2313536939285736
16	0xbfd32021027f9dbb	-0.2988359951400203
17	0xbfd44b273e57c969	-0.31708699310470095
18	0x400759121dd2e23f	2.9184915857297535
19	0x3fc81cf358f9e310	0.18838350147759586
20	0xbfe1c3a81ba3e91c	-0.5551338710641036
21	0x400b5408bf4a3cd7	3.4160323090105567
22	0xbfd0f4344f1141b4	-0.264905049528376
23	0xbfd2794c8ca2af81	-0.2886535046952688
24	0xc001cf05b08cb129	-2.226085070890026
25	0xbfbd825df2169a7f	-0.11527049217566264
26	0xbfcfb59053874414	-0.24772838667425445
27	0xc0119edde7fcdff0	-4.405143379983187
28	0xbfd4a9c978b3c6da	-0.3228629759533824
29	0xbfc0d98b531c1261	-0.1316389232453217

0.bias f8 [10]
0	0xbfa69065c248fa16	-0.04407041546481964
1	0xbf80395d5ca5af11	-0.007921914472454302
2	0x3f7ac6f69b30b2b6	0.006537402444376885
3	0x3f775e98b1103b64	0.005705448581479231
4	0x3fa4f75f12ad6dc0	0.04094979384418762
5	0x3f7c4b28418510b2	0.006907613038780779
6	0xbf4aad552f8d6254	-0.0008141199060488027
7	0xbfb03106a0f558cf	-0.06324807576797585
8	0x3fa744b32efe40e8	0.045446013914558325
9	0xbfc185f66f55d9f3	-0.1369007152204201

2.weight f8 [2, 10]
0	0xbf707de2c4c4977f	-0.004026304068508567
1	0x3fa2421483948e9d	0.03566040140347335
2	0xbfa0ba512f61ccf7	-0.03267148688692061
3	0x3eeea82e3786e8f3	1.4618375403386836e-05
4	0x3fa30da21697acc3	0.03721338773524387
5	0xbf968b3fcf9d9b89	-0.022015568777898707
6	0xbf8168d535906f31	-0.008500734040402943
7	0x3f9046aa5ade66e1	0.015894567295254517
8	0xbfb4d81c8abb55ae	-0.08142259966856244
9	0xbfc22e0faeb294f4	-0.14203067808299574
10	0x3fadc83a0d1653da	0.05816823396450106
11	0x3fd092c0f1c4c649	0.25895713434428963
12	0xbfd15cb8ecba042b	-0.2712843238624056
13	0x3f63043a8f214ae4	0.0023213523609596377
14	0xbfb94853d7649fb5	-0.0987598801481216
15	0xbfcde5ee6d9663bd	-0.2335794482321755
16	0xbfcd495bfc55afa9	-0.22880124875098076
17	0xbfc430c815e830ee	-0.1577386958091504
18	0xbfabefecb0f3b9f2	-0.0545648542409828
19	0x3fac6a9b85a2c95b	0.055500850737547146

2.bias f8 [2]
0	0xbf900d1755a8ff98	-0.01567493877723755
1	0x3f885dfc3c25c52f	0.011898012719685795
