documentation/source/example_gallery/training_notebook/results_my_dataset/approx_mpc.pth (torch, 3880 bytes, 4 tensors)

layers.0.weight f4 [50, 6]
000000 94 a8 92 3e f7 2c a5 3e 83 c7 f5 bd ea 3f b5 3e
       0.2864424 0.32260868 -0.120009445 0.35400325
000010 99 d9 f4 bd fd 15 55 3d 00 07 1c be 5c bc 83 3e
       -0.11955566 0.052022923 -0.15237045 0.25729644
000020 1e 7f c8 3e 3b 78 7c be b3 79 cc 3e 44 ac 09 3e
       0.39159483 -0.2465524 0.399366 0.1344462
000030 f0 af 9d 3e 15 55 ac 3d 6b 73 95 3e 82 0b 1f 3d
       0.30798292 0.084146656 0.2918962 0.038829334
000040 cb 3f be 3e ae c4 13 3e ab b9 68 be 10 ce f5 3d
       0.37158045 0.14430496 -0.22727077 0.12002194
000050 b3 01 90 be 23 fd 38 be bc e3 2d be f6 c8 40 3e
       -0.28126296 -0.18065314 -0.16981405 0.1882666
000060 bf cf ca be ce 8a 5d be fe e9 7a be df d2 ab be
       -0.39611623 -0.21634981 -0.24503323 -0.3355932
000070 c1 5e de bd 67 86 f9 be da d7 ab 3e b9 d8 be be
       -0.108579166 -0.48735353 0.3356312 -0.3727472
000080 3c 2a 90 3e 37 d9 dd 3c 44 5c 27 be 20 07 6a 3e
       0.28157222 0.027081115 -0.1634379 0.2285428
000090 b9 7f ed 3c b3 1e a7 3e 3f b4 06 3d a7 5e 12 be
       0.028991567 0.3264061 0.03288674 -0.1429392
0000a0 e2 64 b3 3d ae 1b 05 be 8e fd 0a 3e 28 06 b1 3e
       0.08759476 -0.1299884 0.13573286 0.3457501
0000b0 18 1e 58 3e 1d 87 5a be d8 99 4b 3e 4c 10 d8 3c
       0.2110523 -0.21340604 0.19882905 0.026374958
0000c0 7f f1 33 3e ef b0 69 be a9 61 fd be 59 c9 81 be
       0.17572592 -0.22821401 -0.4948857 -0.2534893
0000d0 b8 05 ba be 7e d9 88 3e 5b ad 1d 3e 9b a3 23 3e
       -0.36332488 0.26728433 0.15398161 0.1598038
0000e0 98 1c 45 3e 44 3f 57 3d a9 40 af 3e d5 c9 56 be
       0.19249189 0.05255057 0.3422902 -0.2097543
0000f0 57 2a 35 3b e3 68 a8 be f0 52 83 3d 12 81 40 be
       0.0027643645 -0.32892522 0.064123034 -0.18799236
000100 40 56 a3 3d 81 45 ff bd c1 12 f2 3e 44 14 59 be
       0.07975435 -0.12464429 0.47279933 -0.21199137
000110 56 c6 7e be 66 ac 83 be 93 ad c0 3e 09 d9 29 3e
       -0.24880347 -0.25717467 0.37632427 0.16586699
000120 18 10 d1 3e 04 f4 a7 be 05 87 ab be 41 6b 77 be
       0.4083259 -0.32803357 -0.3350145 -0.24162008
000130 05 e2 5b be de 0d 5d 3e 71 f7 67 3e 7a 92 b7 3e
       -0.21472938 0.21587321 0.22652985 0.3585394
000140 a3 8e 59 be 5b 55 82 be 0b 15 7f 3e 16 2d b4 bd
       -0.21245818 -0.25455746 0.24910371 -0.08797662
000150 6c 9a 98 3e 6b d0 b0 bd 93 4a 71 3e f9 1e 8f be
       0.29805315 -0.086335026 0.23563604 -0.27953318
000160 7c 65 33 be 52 3a 22 3e e9 d5 4e 3d 08 aa f4 bd
       -0.17519182 0.1584256 0.05049697 -0.119464934
000170 35 d9 64 3e 7b 5b 83 3e ec 7c a2 be 80 56 81 be
       0.22348483 0.25655732 -0.31735933 -0.25261307
000180 1e 94 b2 3e 36 01 40 be d5 f2 3d be e6 b5 df be
       0.3487863 -0.18750462 -0.18549664 -0.43693465
000190 75 2f 83 be 81 2c 43 3d 31 a3 8f bc d7 45 9f be
       -0.25622144 0.047649864 -0.01753387 -0.3110797
0001a0 e3 70 46 bc 67 ba 8f be 49 c7 a3 be 7b 4c 52 be
       -0.012111875 -0.280719 -0.3198798 -0.20536987
0001b0 79 9c e9 be 5e 11 9d be 7e 7b c9 3e f7 e8 62 3d
       -0.45627192 -0.30677313 0.3935203 0.055397954
0001c0 07 38 8d 3d 9d ac e6 be df 5c a6 be 33 c1 2d be
       0.06895452 -0.45053568 -0.3249273 -0.16968231
0001d0 ac f3 5a 3c e0 d8 c8 be 48 cf 68 be f9 5b 97 be
       0.01336376 -0.39227962 -0.22735322 -0.29562357
0001e0 de 8d 37 3d 51 e4 78 be c9 55 31 be b8 e4 c3 be
       0.04481303 -0.24305846 -0.1731788 -0.38260436
0001f0 8e 8d b6 be 18 ab 89 be a8 31 5c be b8 b8 b7 be
       -0.35654873 -0.26888347 -0.21503317 -0.35883117
000200 a1 76 9f 3e e0 72 00 be 12 90 9a 3e ad 2c 8f 3d
       0.31145194 -0.12543821 0.30188042 0.06990943
000210 c4 30 c3 be 42 0b 7d 3e 37 d8 1e be 7b be 4d be
       -0.38123143 0.24711326 -0.15512167 -0.20092194
000220 2a e4 bf be 35 ca e3 be 8e c7 13 3e 57 4f ae bd
       -0.37478763 -0.4449021 0.14431593 -0.085112266
000230 5b 10 28 3e 46 c8 99 be bb 19 9e 3e 1e 49 81 be
       0.16412489 -0.3003561 0.30879006 -0.25251096
000240 90 88 39 bd 95 39 ed 3d 5b eb 87 3e c4 e3 c4 3e
       -0.04529625 0.115832485 0.2654675 0.3845502
000250 7c a7 d3 3e 94 6a 8a be 76 e3 d4 3d 8e c9 bb bd
       0.41338718 -0.27034438 0.10394947 -0.09169303
000260 28 7b 98 3c 61 ba 7b be 83 7d bd 3e c7 93 62 be
       0.018613413 -0.24582817 0.3700982 -0.22126685
000270 ec e7 b5 3e 71 fd ed 3e 0e 98 ef 3e c3 38 3b 3c
       0.35528505 0.46482423 0.46795696 0.011427107
000280 96 c7 e0 3e 5a 50 3d 3e f0 40 6a 3c 15 2a bb be
       0.43902272 0.18487683 0.014297709 -0.36555544
000290 e8 53 16 3e c8 5d c9 bd d9 5c 60 be 78 c8 91 3e
       0.14680445 -0.098323405 -0.21910419 0.28473258
0002a0 3e 7d 96 3d ac f7 5f be 96 bf 7d be 18 a4 a3 bd
       0.07348107 -0.21871823 -0.24780115 -0.07990283
0002b0 2f 52 23 3e e1 16 17 be ef 37 32 be e3 da fc bd
       0.1594932 -0.14754821 -0.1740415 -0.12346437
0002c0 8f 22 95 be 15 f1 1a 3e ea f8 a7 3e 84 87 aa be
       -0.2912793 0.15131028 0.32807094 -0.33306515
0002d0 25 7b 11 3e 0f 2c 7b 3e a4 ad d7 3d 87 d4 ca bd
       0.14207132 0.24528526 0.10531166 -0.099038176
0002e0 3b ff 8c 3e 83 72 96 3e 45 d1 c6 3d 3c e6 9c bd
       0.27538475 0.2938424 0.09707884 -0.07661101
0002f0 43 7e 09 be ab 3c 04 ba f4 ea e2 bd c6 4f 2f be
       -0.13427071 -0.00050444406 -0.1107997 -0.17120275
000300 ff c2 69 3e 98 fd ac 3e ed 28 93 bd e0 86 01 be
       0.22828291 0.33787227 -0.0718554 -0.12649107
000310 58 1d ac bc 45 03 16 bd 26 7e 08 3e c7 1d 10 3e
       -0.021010086 -0.03662421 0.13329372 0.14073859
000320 6d b4 ab be 1c 2f e5 bd 62 1e c0 3e 1e 36 43 3e
       -0.3353609 -0.11190626 0.3752318 0.19063613
000330 91 5d 51 bd 56 97 83 be 70 fe a0 be 73 ee db be
       -0.051114623 -0.25701398 -0.3144412 -0.4295536
000340 d7 24 3f be a4 11 af 3d ef 13 98 3e 45 b7 51 3e
       -0.18666397 0.085482866 0.29702708 0.20480068
000350 e1 6c a9 be 82 8a 54 be 29 ec 1c bd b9 0a d9 3e
       -0.3309088 -0.20755962 -0.038311157 0.42390993
000360 03 29 33 3d 7c 88 b5 bd 0d b5 0d 3e c8 de 3c be
       0.043740284 -0.08863923 0.13838597 -0.1844436
000370 ba 89 8e be be f2 7e 3e 13 04 13 be aa c7 2a bd
       -0.27839452 0.24897286 -0.14357023 -0.04169432
000380 25 2c d3 be 27 4a 57 3e 43 94 a3 3e 87 11 57 3e
       -0.41244617 0.2102438 0.31949052 0.2100278
000390 5a 21 b2 be 0c d7 bc be 50 b6 9e be b4 eb 86 3e
       -0.3479107 -0.36882818 -0.30998468 0.26351702
0003a0 cd a9 29 3e b5 7c 8b 3e 99 ce 3d 3e 94 7c 0c 3e
       0.1656868 0.2724358 0.18535842 0.13719398
0003b0 66 93 2b 3d 6a 20 91 be 25 57 af be ee b6 b5 be
       0.041888617 -0.28345042 -0.34246174 -0.35491127
0003c0 a4 bb f1 3d 4b e4 5c be 57 82 11 be 3e 70 91 be
       0.11803368 -0.21571462 -0.14209877 -0.28405946
0003d0 13 d6 19 be a1 55 a9 be 63 c0 70 be 27 06 22 3e
       -0.15023069 -0.33073142 -0.2351089 0.1582266
0003e0 1e 35 c8 bd 6d e8 90 3e ad 7d d4 bd d8 67 86 be
       -0.09775756 0.28302327 -0.10375533 -0.26251101
0003f0 83 59 a6 bd 58 13 82 be be 18 7d be 9c e2 f8 be
       -0.08122542 -0.25405383 -0.2471647 -0.4861039

layers.0.bias f4 [50]
000000 73 d8 db bc 90 b6 29 3b 8d 12 c2 bb 8f c5 cd be
       -0.02683661 0.002589617 -0.0059226216 -0.40189788
000010 5a f8 00 bf 29 92 8e 3e f5 56 7d be 1c 21 2f 3d
       -0.50378954 0.27845886 -0.24740203 0.042756185
000020 a3 1c 81 be 69 69 0e 3e 15 18 bb 3e 05 5a 51 3e
       -0.2521716 0.13907398 0.3654181 0.20444496
000030 6e a4 8a be 7f cf 84 3e 5f 72 f1 3e bc ba 94 3d
       -0.27078575 0.25939557 0.4715757 0.07262179
000040 95 ff 6d 3e b8 d5 fa 3e 81 bf 2f be 3f 71 9e bc
       0.23242028 0.4899118 -0.17162897 -0.01934111
000050 29 d0 e8 be 89 3d 27 be 08 ea 5a 3e 98 8d 92 3e
       -0.45471314 -0.16332068 0.21378338 0.28623652
000060 66 4c 39 be 07 cb b9 be 65 ef fc be b6 35 f8 be
       -0.1809555 -0.3628771 -0.49401394 -0.48478478
000070 d2 0f d4 be 8f 6c b1 bd 1d f1 c6 3e ae bb 2b bd
       -0.4141832 -0.08663284 0.3885583 -0.041927032
000080 72 8b d2 be 94 e9 8e be 8f 98 dd 3d af bf 80 be
       -0.41122013 -0.2791258 0.10820114 -0.25146243
000090 dc 8d 0c be c8 7c b0 3e 86 6c 8f be d9 18 e7 bd
       -0.1372599 0.344702 -0.28012484 -0.11284036
0000a0 c6 94 1c be 9b 0a 1e bd a3 c9 cb be cc fe a4 be
       -0.15291128 -0.038584333 -0.39802274 -0.32225645
0000b0 39 a1 8d be b3 a3 a0 be b9 3d b5 3e e3 8f 03 be
       -0.27662066 -0.31374893 0.35398653 -0.12847857
0000c0 6e 6f 51 be cb 64 b4 3b
       -0.20452663 0.0055051795

layers.2.weight f4 [2, 50]
000000 75 36 ea bc 26 73 32 3d 6d 5c 00 3e e0 2f 01 bd
       -0.02859042 0.043566845 0.12535258 -0.031539798
000010 fb aa 2e be 16 68 1f bd da c7 ab 3c 38 08 c8 ba
       -0.17057411 -0.038917623 0.02096932 -0.0015261238
000020 7a bb 4b 3d 58 b7 33 3e 86 37 50 bd 46 e5 95 be
       0.04973934 0.17550409 -0.0508342 -0.29276484
000030 23 ed a2 3d 54 e8 92 bd 9c 3d c5 bc fa 90 07 3e
       0.079553865 -0.07173219 -0.02407723 0.13238898
000040 7e ca 0f 3e 4a 61 86 bd dc c4 eb 3d 5b 0f b4 3a
       0.14042088 -0.06561525 0.11512157 0.0013737486
000050 7a 9e d5 3d e8 b8 16 3e 9c dd 6f bd e3 8d f9 bc
       0.10430618 0.14718974 -0.058560953 -0.030463165
000060 40 0e ca bd 13 f7 9c bd 9c 29 c4 3c 83 4f be 3d
       -0.09865999 -0.07664313 0.023945622 0.092925094
000070 8b 14 c6 3d ba 23 84 bd f0 73 03 3e 42 d1 fc bd
       0.09671887 -0.06452127 0.12837195 -0.123446
000080 a9 d0 5d bc bf ce 0d 3d 7a a3 0c 3d b5 b7 6c 3d
       -0.013538518 0.034620997 0.03433559 0.057792384
000090 c2 c9 84 be 43 e8 00 3e b5 07 36 3c dc fb 6d bd
       -0.2593518 0.12588601 0.011110236 -0.05810152
0000a0 2d e8 8d bb 56 de 52 3d 86 3d a5 3d 70 81 83 3c
       -0.004330656 0.051481567 0.08068375 0.016052932
0000b0 59 f6 79 3d 42 17 19 bd 7b a0 6f 3d ba f5 7b 3b
       0.06102595 -0.037375696 0.058502655 0.0038446025
0000c0 fb f1 a6 3d 66 39 7a bc 91 9b 7a bc a9 9c df 3d
       0.08151623 -0.015272474 -0.015295879 0.109185524
0000d0 23 58 12 3d de f4 78 bd 9a cc be bd 27 b7 8e bd
       0.035728585 -0.0607804 -0.093163684 -0.06968527
0000e0 32 9c 95 be 24 85 1d bd 32 26 01 be 44 2f a0 3d
       -0.2922073 -0.03845705 -0.12612227 0.07821515
0000f0 d1 05 5b 3d b0 b0 46 3d 8d 20 aa 3d fa 6a 00 3e
       0.053472344 0.048508346 0.0830699 0.12540808
000100 c7 8e 32 3e 2b 76 23 bc 1a f8 b2 3d ce 4f 1f 3e
       0.17437278 -0.009976904 0.08738728 0.15557787
000110 43 f9 37 be 9e 77 00 be 61 b3 84 bd af 3e a8 bd
       -0.1796618 -0.1254563 -0.06479526 -0.08215081
000120 13 c8 db bd 5f 2e 20 3e 72 7c 97 3d 02 a3 f8 bc
       -0.107315205 0.15642689 0.07396783 -0.030351166
000130 4f 3e a4 be cb 34 44 be 3c 25 de bd 0f 99 56 ba
       -0.32078788 -0.19160764 -0.10846946 -0.00081862597
000140 ab 4e fe 3d 81 9d 32 bd 28 be 3b be ef 9c a3 3a
       0.124173485 -0.04360724 -0.18334258 0.0012482683
000150 2d 16 00 be f0 d3 0c 3c f8 a6 df bd 87 6f a3 3d
       -0.1250846 0.008595452 -0.10920519 0.079802565
000160 fa e8 82 bd 6d d5 c0 bc 61 7c ae bd 2e 8e 5f 3d
       -0.06392093 -0.02353927 -0.08519817 0.054578952
000170 12 b4 64 bd 57 48 94 bd 6b 9a 69 3d e7 ce 07 be
       -0.05583579 -0.0724036 0.05703203 -0.1326252
000180 9d 74 3a 3e ce e6 a0 3d f1 2e 79 3d 06 c9 05 be
       0.18208547 0.078565225 0.060835782 -0.13064966

layers.2.bias f4 [2]
000000 07 fa 0d 3d 2e 7e 8b bd
       0.034662273 -0.06811176
